



----ID of process running main program: 35060----




3 Physical GPUs, 3 Logical GPUs
Model: "model"
_________________________________________________________________
Layer (type)                 Output Shape              Param #   
=================================================================
input_1 (InputLayer)         [(None, 30, 1)]           0         
_________________________________________________________________
lstm (LSTM)                  (None, 30, 101)           41612     
_________________________________________________________________
leaky_re_lu (LeakyReLU)      (None, 30, 101)           0         
_________________________________________________________________
lstm_1 (LSTM)                (None, 101)               82012     
_________________________________________________________________
leaky_re_lu_1 (LeakyReLU)    (None, 101)               0         
_________________________________________________________________
flatten (Flatten)            (None, 101)               0         
_________________________________________________________________
dense (Dense)                (None, 101)               10302     
_________________________________________________________________
leaky_re_lu_2 (LeakyReLU)    (None, 101)               0         
_________________________________________________________________
dense_1 (Dense)              (None, 1)                 102       
=================================================================
Total params: 134,028
Trainable params: 134,028
Non-trainable params: 0
_________________________________________________________________
<keras.engine.functional.Functional object at 0x7f30e4644470>

#########
Start of epoch 0 
#########
Epoch: 0 Batch: 30 Loss: 0.0037459414452314377, Time: 0.163
Epoch: 0 Batch: 60 Loss: 0.390595018863678, Time: 0.164
